Keras Verb Conjugation Log #5

LAYERS = 3
HIDDEN_SIZE = 128

Build model...
_________________________________________________________________
Layer (type)                 Output Shape              Param #
=================================================================
lstm_19 (LSTM)               (None, 128)               79872
_________________________________________________________________
repeat_vector_9 (RepeatVecto (None, 15, 128)           0
_________________________________________________________________
lstm_20 (LSTM)               (None, 15, 128)           131584
_________________________________________________________________
lstm_21 (LSTM)               (None, 15, 128)           131584
_________________________________________________________________
lstm_22 (LSTM)               (None, 15, 128)           131584
_________________________________________________________________
time_distributed_9 (TimeDist (None, 15, 27)            3483
_________________________________________________________________
activation_9 (Activation)    (None, 15, 27)            0
=================================================================
Total params: 478,107
Trainable params: 478,107
Non-trainable params: 0

--------------------------------------------------
Iteration 1
Train on 1930 samples, validate on 214 samples
Epoch 1/1
1930/1930 [==============================] - 5s 3ms/step - loss: 2.4630 - acc: 0.4626 - val_loss: 1.7574 - val_acc: 0.5012
Q conspire       T conspired       ☒
…
