Keras Verb Conjugation Log #3

Build model...
_________________________________________________________________
Layer (type)                 Output Shape              Param #
=================================================================
lstm_7 (LSTM)                (None, 128)               79872
_________________________________________________________________
repeat_vector_4 (RepeatVecto (None, 15, 128)           0
_________________________________________________________________
lstm_8 (LSTM)                (None, 15, 128)           131584
_________________________________________________________________
time_distributed_4 (TimeDist (None, 15, 27)            3483
_________________________________________________________________
activation_4 (Activation)    (None, 15, 27)            0
=================================================================
Total params: 214,939
Trainable params: 214,939
Non-trainable params: 0
_____________________________________

Train on 1930 samples, validate on 214 samples
Epoch 1/300
1930/1930 [==============================] - 1s 620us/step - loss: 1.1929 - acc: 0.6316 - val_loss: 1.1843 - val_acc: 0.6386
Epoch 2/300
1930/1930 [==============================] - 1s 620us/step - loss: 1.1848 - acc: 0.6332 - val_loss: 1.1711 - val_acc: 0.6421
…
