Keras Verb Conjugation log #2

- Batch Size: 256
- hidden Size: 256
- Flawed validation set

- Before lunch, Monday June 2

Build model...
_________________________________________________________________
Layer (type)                 Output Shape              Param #
=================================================================
lstm_5 (LSTM)                (None, 256)               290816
_________________________________________________________________
repeat_vector_3 (RepeatVecto (None, 15, 256)           0
_________________________________________________________________
lstm_6 (LSTM)                (None, 15, 256)           525312
_________________________________________________________________
time_distributed_3 (TimeDist (None, 15, 27)            6939
_________________________________________________________________
activation_3 (Activation)    (None, 15, 27)            0
=================================================================
Total params: 823,067
Trainable params: 823,067
Non-trainable params: 0

--------------------------------------------------
Iteration 1
Train on 1930 samples, validate on 214 samples
Epoch 1/1
1930/1930 [==============================] - 4s 2ms/step - loss: 2.6022 - acc: 0.4305 - val_loss: 2.0292 - val_acc: 0.4938
Q flow           T flowed          ☒
…
